LAB04/RNN.pth (torch, 63973 bytes, 6 tensors)

i2h.weight f4 [32, 109]
0.4282501 0.3413621 -0.013711082 -0.22989747 -0.2761823 -0.04061097 -0.09781216 -0.1549018
-0.0036767495 -0.13720496 0.05456773 -0.054460324 -0.018291464 -0.20194963 -0.030566905 0.04813441
-0.107598 0.30247772 0.045115747 -0.11076865 0.26137042 0.03411849 0.24745782 0.046554103
-0.15899059 -0.2559223 -0.23911451 0.11824918 0.022830551 0.045757454 -0.036562886 0.17325129
-0.014980376 -0.18377784 0.0892075 -0.10452152 -0.14641702 -0.012246593 0.008257212 -0.17913051
-0.026953213 -0.038795527 -0.10039273 -0.021697892 -0.017050304 -0.06115258 -0.17403863 0.06850873
0.061331414 0.09116053 0.16912626 -0.02052792 -0.017971959 0.056570396 -0.14139429 0.091095604
0.09690562 0.026008032 0.015277636 -0.099559814 0.060733657 0.08656194 0.0031852587 -0.08452886
-0.037254583 -0.047750875 0.0015995963 -0.01783819 -0.13055211 -0.05423513 0.13918144 0.055491243
0.057012863 -0.083425775 0.07788658 -0.04426321 0.08775898 0.17747809 -0.08045712 0.09330521
0.10194691 -0.035748344 -0.07296437 0.11261707 0.1402375 -0.01829736 0.17656213 -0.14938265
-0.08423375 -0.031116435 -0.072590604 0.12908614 0.010505089 0.011716902 -0.05603309 0.11636424
0.071670175 -0.001956507 0.048565753 0.08340223 -0.06129316 -0.2970129 -0.040464483 0.06518007
0.12004934 -0.015266082 0.03783721 0.12716378 0.014195823 0.21627343 -0.023847695 -0.117870644
-0.06761237 -0.07147121 -0.2386417 0.26871362 0.008768714 -0.10773409 -0.0012800609 -0.06507556
-0.022333298 0.17393342 -0.08087636 -0.27898824 0.12055545 -0.055837367 0.18987122 -0.16172342
0.15419595 -0.14603026 -0.073627695 -0.07233064 0.019515872 -0.08949211 -0.00410671 0.17764634
-0.12483721 -0.09951401 -0.044552322 -0.05972632 0.008756568 -0.38203108 0.057740778 0.030135566
0.005771699 0.07420822 -0.078247674 0.21400325 0.05353143 0.00010450246 0.066625476 0.16529197
-0.09037988 -0.1805719 0.16686507 -0.059157148 -0.120643206 -0.16537517 0.075888984 0.12707736
0.21195802 0.123331435 0.14149506 0.0075129643 -0.040845286 0.02312413 -0.026554823 -0.2659102
0.039692987 -0.010535459 -0.0996176 -0.09553666 -0.0745932 -0.058311306 0.06584238 0.07975769
-0.030281285 0.06512826 -0.04255126 -0.04213698 0.085751876 0.014675569 7.283656e-05 0.09438924
-0.05510839 -0.015631557 -0.02604667 0.17369086 0.31237036 0.08906896 -0.11111006 -0.18954167
0.08740474 -0.21016622 0.07547395 -0.18459411 0.15664516 -0.039482232 -0.19391912 -0.009967469
-0.025085265 -0.033071693 0.18963444 0.11947458 -0.023120675 0.016075352 -0.011717921 -0.025658397
-0.08029608 -0.06642318 0.09846818 0.13070457 0.10932608 0.094867274 -0.19079624 -0.03697676
0.10023534 0.04180011 -0.39066193 -0.26041147 0.046782788 -0.017901683 -0.1624999 0.14227691
-0.07153317 0.15331776 0.2370048 -0.07041501 0.11493628 0.10548712 0.35757586 0.11187226
-0.13733782 0.2016574 0.055128183 -0.29694417 0.24657689 -0.13617925 -0.35980573 0.0101681845
0.38228402 -0.017128434 -0.12830883 0.11940414 0.23505825 0.124813914 -0.14072521 0.12538016
-0.19995648 0.23832111 0.01157006 -0.22546887 -0.2679894 0.28344637 -0.20392524 -0.1954118
00000000: 9943 db3e 03c7 ae3e 72a4 60bc 3e6a 6bbe
00000010: c467 8dbe b057 26bd be51 c8bd 949e 1ebe
00000020: 9ff5 70bb 757f 0cbe 6982 5f3d ca11 5fbd
00000030: fbd7 95bc e2cb 4ebe 7267 fabc 9628 453d
00000040: 575c dcbd 5cde 9a3e 4acb 383d adda e2bd
00000050: 58d2 853e d4bf 0b3d 9565 7d3e 84af 3e3d
00000060: 6ece 22be 3f08 83be 6fda 74be a02c f23d
00000070: 2307 bb3c 2b6c 3b3d f7c2 15bd c968 313e
00000080: 4070 75bc 4230 3cbe 6cb2 b63d 610f d6bd
00000090: 58ee 15be efa5 48bc 4249 073c fd6d 37be
000000a0: fccc dcbc 0fe8 1ebd b49a cdbd c7bf b1bc
000000b0: 14ad 8bbc 217b 7abd 2f37 32be 4e4e 8c3d
000000c0: a636 7b3d 5fb2 ba3d 6f2f 2d3e 2b2a a8bc
000000d0: ee39 93bc 5cb6 673d aac9 10be 5590 ba3d
000000e0: 7476 c63d cc0e d53c 0d4f 7a3c 04e6 cbbd
000000f0: dbc3 783d 6347 b13d c6bf 503b 781d adbd
00000100: 4398 18bd 6c96 43bd 8ca9 d13a 6521 92bc
00000110: 74af 05be a825 5ebd 9485 0e3e c94a 633d
00000120: 5286 693d 22db aabd 0083 9f3d 574d 35bd
00000130: fbba b33d d1bc 353e b4c6 a4bd cd16 bf3d
00000140: 8bc9 d03d db6c 12bd 586e 95bd c7a3 e63d
00000150: 6b9a 0f3e 58e4 95bc b4cc 343e c4f7 18be
00000160: bf82 acbd e5e7 febc 62aa 94bd 282f 043e
00000170: 891d 2c3c 40f8 3f3c f482 65bd 6050 ee3d
00000180: d0c7 923d be38 00bb e2ec 463d cace aa3d
00000190: 890e 7bbd 1312 98be 16be 25bd 217d 853d
000001a0: 6edc f53d 971e 7abc 31fb 1a3d 3937 023e
000001b0: 9995 683c c876 5d3e 3e5c c3bc 2a66 f1bd
000001c0: 5b78 8abd 7f5f 92bd 7d5e 74be d594 893e
000001d0: a7aa 0f3c b1a3 dcbd b7c7 a7ba 5646 85bd
000001e0: 52f4 b6bc 9a1b 323e 81a2 a5bd 8cd7 8ebe
000001f0: c7e5 f63d b9b5 64bd 9a6d 423e d39a 25be
00000200: 8be5 1d3e f588 15be 1eca 96bd 1622 94bd
00000210: c0df 9f3c a447 b7bd 9591 86bb ece8 353e
00000220: a7aa ffbd 00ce cbbd 7f7c 36bd 96a3 74bd
00000230: b577 0f3c 9499 c3be 9881 6c3d ddde f63c
00000240: 8520 bd3b 7bfa 973d 5140 a0bd ab23 5b3e
00000250: c643 5b3d 5528 db38 f072 883d 4c42 293e
00000260: 1619 b9bd d7e7 38be adde 2a3e c44e 72bd
00000270: c913 f7bd 1c58 29be af6b 9b3d 9120 023e
00000280: 860b 593e 3195 fc3d 15e4 103e 502f f63b
00000290: 634d 27bd d16e bd3c 8089 d9bc 6225 88be
000002a0: 1d95 223d eb9c 2cbc 5004 ccbd b9a8 c3bd
000002b0: 52c4 98bd d6d7 6ebd 5fd8 863d 0058 a33d
000002c0: 7510 f8bc f761 853d 3b4a 2ebd d397 2cbd
000002d0: ae9e af3d cc71 703c d5bf 9838 254f c13d
000002e0: 56b9 61bd c00d 80bc d35f d5bc 04dc 313e
000002f0: 02ef 9f3e c969 b63d ac8d e3bd 3617 42be
00000300: 4201 b33d d035 57be 1692 9a3d 3d06 3dbe
00000310: 9767 203e 1fb8 21bd bc92 46be 984e 23bc
00000320: 9d7f cdbc 2f76 07bd 882f 423e 17af f43d
00000330: 9267 bdbc 75b0 833c 86fc 3fbc 8f31 d2bc
00000340: 4572 a4bd e008 88bd afa9 c93d 6bd7 053e
00000350: 5ae6 df3d c649 c23d 1760 43be f174 17bd
00000360: 3048 cd3d 9836 2b3d d704 c8be a754 85be
00000370: 4f9f 3f3d 8da6 92bc 6066 26be 0ab1 113e
00000380: fc7f 92bd 55ff 1c3e 63b1 723e bf35 90bd
00000390: b663 eb3d a209 d83d 2f14 b73e 491d e53d
000003a0: 49a2 0cbe 477f 4e3e 17ce 613d 1109 98be
000003b0: a77e 7c3e 9372 0bbe 7538 b8be 7598 263c
000003c0: bbba c33e ee50 8cbc 6463 03be 288a f43d
000003d0: 1cb3 703e 709e ff3d 451a 10be a863 003e
000003e0: 64c1 4cbe 730a 743e 5990 3d3c 50e1 66be
000003f0: e835 89be e21f 913e c7d1 50be 081a 48be

i2h.bias f4 [32]
-0.1196262 -0.21794203 -0.09350774 -0.15151934 0.30784655 -0.58732414 0.18102925 0.11596295
0.061201748 -0.086457744 0.4186279 0.11124301 0.06331697 0.14353946 0.023082096 0.12668844
-0.26549858 -0.07108899 0.24698858 -0.028027454 0.2767128 0.13689715 -0.07108709 0.22870968
0.46229056 0.1213294 0.18705992 0.11734852 -0.25847673 0.09006278 -0.2736344 0.13806352
00000000: 95fe f4bd 322c 5fbe fc80 bfbd e327 1bbe
00000010: 109e 9d3e e05a 16bf bb5f 393e fc7d ed3d
00000020: afae 7a3d c210 b1bd 6556 d63e 60d3 e33d
00000030: 54ac 813d 02fc 123e aa16 bd3c 9dba 013e
00000040: 6eef 87be 1b97 91bd 93ea 7c3e d599 e5bc
00000050: 4dad 8d3e c42e 0c3e 1c96 91bd df32 6a3e
00000060: 59b1 ec3e 8c7b f83d a38c 3f3e 6c54 f03d
00000070: 1057 84be d672 b83d cf19 8cbe 8660 0d3e

i2o.weight f4 [59, 109]
-0.0221765 -0.019397039 0.030081432 0.06712683 0.20082943 0.028928282 0.12548845 0.02279714
0.022579422 -0.11326011 0.010687705 0.22123347 0.09409221 -0.06985199 0.03140934 -0.066156015
-0.0055564595 0.08625301 0.06474576 0.079346314 -0.15786731 -0.019651547 0.16358547 -0.06694153
-0.046591967 0.09403118 -0.17707416 -0.05379503 0.15571544 0.0035513313 -0.03694705 -0.15119636
-0.11361663 -0.032797772 -0.009773882 -0.04479952 -0.12878792 0.12473672 -0.045061033 0.17753135
0.19829422 -0.039472926 0.11203394 -0.011780556 0.026040038 0.10279347 0.15052295 0.00083661755
-0.02070942 0.113827966 0.025337568 0.088738255 -0.021041786 0.06436625 0.005866567 -0.016370399
-0.05216852 -0.051716913 0.100649685 -0.01100049 -0.06954983 -0.08334204 -0.15306872 0.124127515
-0.0053546787 0.0018237358 0.032692946 -0.019874759 -0.069022276 0.027809732 0.05610148 0.022072677
0.051803946 -0.03668128 -0.2705094 0.067324184 0.09010062 -0.0034406146 0.19925451 -0.057156973
0.146906 0.047096327 -0.041207597 0.011783386 0.07310774 0.111309506 -0.0106478445 0.027089717
-0.018338557 -0.14361244 0.042957876 0.0068136533 -0.013681871 0.14335306 0.012576331 0.010391414
-0.029914524 0.11434101 -0.027760943 -0.037102032 0.23392276 -0.12732586 0.049750637 0.07356982
0.1800647 -0.085520744 -0.16362697 -0.1436929 0.013486485 0.055371672 0.024862928 -0.014251016
-0.017375119 -0.040468983 -0.009088617 -0.10418369 -0.15534128 -0.06168416 0.0047307555 -0.09428447
-0.11755113 0.022381106 -0.11037339 -0.008192426 -0.055020384 0.05629117 0.09890757 -0.0379071
0.15012364 0.012966499 0.14635243 -0.08403594 0.053195663 -0.007163887 0.17039092 0.033888444
0.12460069 0.08783975 -0.03897301 0.035612427 -0.009469061 -0.26636952 -0.23694527 -0.034697045
0.07768295 -0.14071895 -0.07193891 -0.03796749 0.17590049 -0.051247217 -0.018820265 0.19353074
0.17830345 -0.04514695 0.06792581 0.014412519 -0.08292988 -0.13951662 -0.026512584 0.0545346
0.0048162276 -0.1405842 0.04588701 -0.04613953 0.1023744 0.09590137 0.11664562 -0.29929337
0.08634433 -0.01988335 -0.1594298 -0.20858105 -0.13667895 -0.090349264 0.1092296 0.006654636
-0.08557011 0.07014751 0.080131344 -0.09283651 -0.03794962 0.055372015 -0.04365669 0.05565309
0.035643917 0.058811195 0.021487612 0.03764961 -0.035808366 0.09451811 -0.12745118 -0.093269475
-0.08222705 -0.027185725 -0.03638609 -0.2044676 0.041077573 -0.060067568 0.07213975 0.15911478
-0.0032648456 -0.15183014 -0.010514036 -0.09027326 0.20777893 0.08414158 0.048273716 0.06890423
-0.17913233 -0.089708075 -0.011394659 -0.11554532 -0.037587248 0.09128558 -0.027875228 0.09335708
-0.17914589 0.021292998 -0.19604467 -0.23804653 0.12634802 -0.029113993 0.46983334 -0.0036475793
-0.07200615 0.041273817 0.09747235 -0.10046884 0.0014500717 0.26974127 0.011777934 0.1307265
0.051175885 0.045488074 -0.12687987 -0.16034321 -0.046914596 0.0238353 -0.03616188 -0.009240134
-0.054546244 0.044370573 -0.019114068 -0.0038963286 0.021912783 -0.08475256 -0.011453326 0.2622087
0.17797144 -0.15972532 0.12945144 0.06339233 0.023941431 -0.14241429 -0.046165124 -0.021970555
00000000: 7eab b5bc 8ae6 9ebc 566d f63c cb79 893d
00000010: 3ba6 4d3e 01fb ec3c 0b80 003e 11c1 ba3c
00000020: 7bf8 b83c ebf4 e7bd 7c1b 2f3c 078b 623e
00000030: 6bb3 c03d 8f0e 8fbd 15a7 003d ce7c 87bd
00000040: f612 b6bb 6ba5 b03d 6d99 843d 5280 a23d
00000050: f8a7 21be 48fc a0bc f382 273e a418 89bd
00000060: 38d7 3ebd 6b93 c03d ee52 35be 2d58 5cbd
00000070: de73 1f3e 74bd 683b ca55 17bd 38d3 1abe
00000080: d6af e8bd f556 06bd a222 20bc b47f 37bd
00000090: fbe0 03be f775 ff3d eb91 38bd c7ca 353e
000000a0: a40d 4b3e 5dae 21bd 0d72 e53d 3c03 41bc
000000b0: eb51 d53c 6285 d23d b022 1a3e 7450 5b3a
000000c0: cda6 a9bc a31e e93d bb90 cf3c 67bc b53d
000000d0: d35f acbc 74d2 833d 553c c03b 371b 86bc
000000e0: a8ae 55bd 1dd5 53bd 6c21 ce3d 663b 34bc
000000f0: 2470 8ebd 3baf aabd 0cbe 1cbe 9136 fe3d
00000100: 4d76 afbb 6b0a ef3a 0ae9 053d 64d0 a2bc
00000110: 8d5b 8dbd 3cd1 e33c aaca 653d c2d1 b43c
00000120: 6030 543d 1c3f 16bd 3580 8abe 43e1 893d
00000130: ad86 b83d ef7b 61bb 6009 4c3e 6e1d 6abd
00000140: 876e 163e 14e8 403d 4cc9 28bd 1a0f 413c
00000150: 83b9 953d 3df6 e33d 4c74 2ebc 41eb dd3c
00000160: be3a 96bc 240f 13be 99f4 2f3d 1145 df3b
00000170: ed29 60bc 25cb 123e f50c 4e3c c040 2a3c
00000180: 4e0f f5bc 9f2b ea3d eb6a e3bc 4df8 17bd
00000190: 7389 6f3e b661 02be 53c7 4b3d c6ab 963d
000001a0: e162 383e 8025 afbd d48d 27be 3b24 13be
000001b0: 6bf6 5c3c 68cd 623d 57ad cb3c 187d 69bc
000001c0: 4456 8ebc cec2 25bd 6ce8 14bc 425e d5bd
000001d0: c911 1fbe 88a8 7cbd 7404 9b3b 3718 c1bd
000001e0: a6be f0bd 9558 b73c 720b e2bd 8639 06bc
000001f0: 0e5d 61bd 9291 663d 0d90 ca3d 7a44 1bbd
00000200: 03ba 193e 7071 543c 69dd 153e 091b acbd
00000210: b2e3 593d 0abf eabb f57a 2e3e 9cce 0a3d
00000220: a62e ff3d 54e5 b33d 2aa2 1fbd 56de 113d
00000230: 1f24 1bbc 9661 88be c8a1 72be 7d1e 0ebd
00000240: 3d18 9f3d a118 10be b554 93bd cc83 1bbd
00000250: 421f 343e 9ae8 51bd f52c 9abc ec2c 463e
00000260: 2e95 363e 02ec 38bd b01c 8b3d 7c22 6c3c
00000270: 24d7 a9bd 72dd 0ebe eb30 d9bc ac5f 5f3d
00000280: 72d1 9d3b 4ef5 0fbe 04f4 3b3d cefc 3cbd
00000290: aba9 d13d f067 c43d e6e3 ee3d fb3c 99be
000002a0: 4cd5 b03d 68e2 a2bc 9141 23be 4596 55be
000002b0: 91f5 0bbe 0909 b9bd c5b3 df3d 220f da3b
000002c0: 623f afbd 7fa9 8f3d e71b a43d 1121 bebd
000002d0: 1071 1bbd c4cd 623d 5bd1 32bd 7ff4 633d
000002e0: 5bff 113d 02e4 703d ca06 b03c 7a36 1a3d
000002f0: cbab 12bd b692 c13d 9082 02be 1104 bfbd
00000300: a866 a8bd 99b4 debc 9509 15bd f45f 51be
00000310: f540 283d 6909 76bd 01be 933d fcee 223e
00000320: 05f7 55bb 5c79 1bbe 1043 2cbc 30e1 b8bd
00000330: 00c4 543e 6c52 ac3d a9ba 453d a91d 8d3d
00000340: 776e 37be deb8 b7bd aab0 3abc 06a3 ecbd
00000350: 16f5 19bd eff3 ba3d 975a e4bc ff31 bf3d
00000360: 0572 37be a76e ae3c efbf 48be 78c2 73be
00000370: 6061 013e 7880 eebc ff8d f03e 3a0c 6fbb
00000380: f677 93bd bc0e 293d 959f c73d 9bc2 cdbd
00000390: 5510 be3a 871b 8a3e 3cf8 403c 2bdd 053e
000003a0: ce9d 513d b451 3a3d ccec 01be 0331 24be
000003b0: 8529 40bd 3f42 c33c 7b1e 14bd ee63 17bc
000003c0: e26b 5fbd ebbd 353d 1b95 9cbc 8c59 7fbb
000003d0: 7082 b33c c092 adbd bba6 3bbc 3840 863e
000003e0: 253e 363e 098f 23be eb8e 043e d7d3 813d
000003f0: d220 c43c 0dd5 11be a417 3dbd 98fb b3bc

i2o.bias f4 [59]
0.7031222 -0.21245249 0.09127133 -0.13104998 -0.18370587 -0.048000075 -0.29608783 -0.5532852
0.084823236 0.10181288 -0.18584073 0.2636031 0.4408497 0.2028068 -0.19808337 0.061659947
0.505384 -0.26226225 0.06239488 0.47259015 -0.28876117 0.21621567 -0.20451571 -0.10018539
0.2865994 -0.050140448 -0.026605435 0.3355329 -0.059771046 -0.05795957 -0.48144627 -0.48628935
0.29364324 0.22969104 -0.1579264 -0.26091957 0.26660722 0.3011945 0.9450916 0.24660534
0.6857549 -0.38593283 0.23449391 0.09229969 0.019830065 -0.562184 -0.22650808 -0.07274194
0.3109809 0.67389315 -0.31000766 -0.022398403 0.29780304 0.31343323 0.21209528 0.31432438
0.16234523 -0.6498612 0.33347425
00000000: d1ff 333f 258d 59be 77ec ba3d f731 06be
00000010: 641d 3cbe ba9b 44bd d398 97be 19a4 0dbf
00000020: ceb7 ad3d 4583 d03d 084d 3ebe fcf6 863e
00000030: 0db7 e13e 96ac 4f3e 5ed6 4abe 248f 7c3d
00000040: d960 013f 3d47 86be c691 7f3d 56f7 f13e
00000050: 81d8 93be a467 5d3e 916c 51be ff2d cdbd
00000060: 28bd 923e 1260 4dbd a4f3 d9bc f8ca ab3e
00000070: 7cd2 74bd 0467 6dbd 2080 f6be ebfa f8be
00000080: 6858 963e 2134 6b3e 75b7 21be 4097 85be
00000090: be80 883e 2a36 9a3e 86f1 713f 1c86 7c3e
000000a0: a28d 2f3f fd98 c5be 2c1f 703e 9f07 bd3d
000000b0: a972 a23c 4aeb 0fbf bcf1 67be baf9 94bd
000000c0: e338 9f3e 4384 2c3f 53b9 9ebe db7c b7bc
000000d0: a479 983e 527a a03e 812f 593e 20ef a03e
000000e0: d43d 263e 4e5d 26bf 23bd aa3e

o2o.weight f4 [59, 91]
-0.24496213 0.20665507 0.077212065 0.3149611 0.08049653 -0.04832111 -0.50853187 0.08917767
0.18679464 0.3637834 0.2777486 0.33448738 0.1253113 0.13049571 0.25216615 0.21007787
-0.19079301 -0.092604764 -0.057011783 0.047428466 -0.06500362 0.082859926 0.26505515 0.29131478
0.039068542 0.14272557 0.21759053 0.2906241 -0.45658085 0.2825277 -0.030769145 0.33388036
0.08695989 0.28338656 0.24737355 -0.1867869 0.15229772 0.25391892 0.36099395 -0.058787975
0.16109274 0.11632873 -0.1199444 0.3068543 0.07793418 0.03035776 0.07029534 -0.2156259
0.3791593 -0.049237274 -0.30266306 0.29474938 -0.3229602 0.38987 -0.12572284 0.116729036
-0.38015538 0.057639945 0.2547113 -0.40072343 -0.46087235 -0.2871579 0.026578188 -0.36401305
-0.12697874 0.013284766 -0.28964785 0.18857895 -0.24486303 -0.36117056 -0.0028975816 0.13486391
0.23159483 -0.14784966 0.12577285 0.04452467 -0.041218445 -0.3455742 0.27477187 0.04034571
0.08291084 -0.09858411 -0.0495851 -0.21422315 0.3140009 -0.024852654 0.24247044 0.062253784
-0.20281796 -0.40283617 -0.05950971 -0.1974789 -0.07161423 0.17910382 0.19046153 -0.15644078
-0.37152952 0.124067485 0.08606773 -0.24370483 0.28069383 0.030729987 0.0037153254 -0.0016548946
-0.15335613 -0.27579996 0.10538899 0.12224116 0.16800016 -0.13278522 0.2236149 -0.12996818
-0.081222005 -0.04660547 -0.24375385 0.14324129 0.14578357 -0.16960956 -0.11290014 0.0131629845
-0.13517569 0.16776688 -0.16166793 -0.040493246 0.019480739 0.26753518 0.19629174 -0.16634552
0.36789787 -0.05111493 -0.28586134 0.26964825 -0.20857501 0.013437204 -0.11018532 -0.34772503
-0.13798502 -0.15686747 0.15057226 -0.012943428 -0.06890036 0.1609656 -0.18214244 -0.0807191
0.057779185 -0.0042711715 0.066970095 0.2386635 -0.14401647 -0.2268687 0.012326588 -0.024707148
-0.2320417 -0.045678657 0.08145141 -0.081490636 -0.14300607 0.25601533 0.15756123 0.014186549
-0.10817267 -0.3082659 0.13514233 -0.11623843 0.09738528 -0.016960772 -0.12318772 -0.026811339
0.08355824 0.022117408 -0.15934563 -0.010091905 0.08563962 -0.034250777 0.07071146 -0.031924754
-0.108213626 -0.13214445 0.07300111 -0.23340443 0.23112914 -0.102230325 -0.009385332 0.052935526
0.055797815 -0.073409356 0.074865706 0.00817057 -0.00079823576 0.00027045797 -0.06202152 0.09808022
0.062374715 -0.09460693 -0.27234432 -0.17327154 -0.5758613 0.1306784 -0.5488518 -0.20549957
-0.009706555 -0.3046481 -0.019636376 -0.39391932 -0.18743588 -0.3069192 -0.04733116 -0.017745502
0.10437814 0.30094454 -0.24479824 -0.13346618 -0.01859355 -0.16757321 -0.21516384 -0.1298174
-0.29443392 0.16573311 -0.056098003 -0.14284717 -0.08351189 -0.08822339 -0.026964122 0.09292337
-0.12842187 -0.42183188 0.08593762 -0.22373626 0.01704649 -0.35507986 0.027822435 0.043005724
0.07227141 -0.3550785 -0.0484497 0.10597065 0.13701929 0.037554156 -0.15324582 -0.0135510145
-0.23216781 -0.23776671 -0.14260323 0.30432764 0.09713658 0.2681278 -0.3721433 -0.10353097
-0.22330001 0.15733643 0.046114564 0.035485268 -0.25478834 0.043796305 -0.06177155 0.27594438
00000000: 5ad7 7abe 639d 533e 5c21 9e3d 9542 a13e
00000010: 5ddb a43d 5bec 45bd 252f 02bf c8a2 b63d
00000020: 1847 3f3e d141 ba3e 1135 8e3e ee41 ab3e
00000030: 9b51 003e aba0 053e ec1b 813e a71e 573e
00000040: 3e5f 43be 91a7 bdbd 3085 69bd 5a44 423d
00000050: 9e20 85bd 77b2 a93d 4fb5 873e 3627 953e
00000060: 5606 203d a726 123e 0dd0 5e3e afcc 943e
00000070: f7c4 e9be 78a7 903e 930f fcbc 5ef2 aa3e
00000080: 0718 b23d 0b18 913e 7e4f 7d3e 1145 3fbe
00000090: eff3 1b3e a901 823e 33d4 b83e a9cb 70bd
000000a0: 7ff5 243e c23d ee3d 69a5 f5bd 021c 9d3e
000000b0: f59b 9f3d d6b0 f83c 01f7 8f3d 09cd 5cbe
000000c0: 2b21 c23e 06ad 49bd a7f6 9abe 64e9 963e
000000d0: 0a5b a5be 0a9d c73e 7dbd 00be a20f ef3d
000000e0: baa3 c2be dd17 6c3d 8569 823e 9f2b cdbe
000000f0: 76f7 ebbe 5c06 93be 80ba d93c eb5f babe
00000100: b706 02be 59a8 593c b94c 94be d71a 413e
00000110: 60bd 7abe 59eb b8be 5ae5 3dbb c419 0a3e
00000120: 3227 6d3e e765 17be 99ca 003e 805f 363d
00000130: acd4 28bd 1aef b0be e6ae 8c3e 8b41 253d
00000140: 29cd a93d 77e6 c9bd bf19 4bbd 505d 5bbe
00000150: bac4 a03e cb97 cbbc 2c4a 783e d3fd 7e3d
00000160: 83af 4fbe 8b40 cebe 74c0 73bd e937 4abe
00000170: 7baa 92bd fe66 373e 5908 433e 0332 20be
00000180: 1e39 bebe 1817 fe3d 4744 b03d c28d 79be
00000190: 1ab7 8f3e 74bd fb3c d17c 733b 0ce9 d8ba
000001a0: 6409 1dbe a735 8dbe 2fd6 d73d 9359 fa3d
000001b0: 3c08 2c3e d9f8 07be 4efb 643e 6116 05be
000001c0: b957 a6bd 61e5 3ebd 9c9a 79be d8ad 123e
000001d0: 4a48 153e 21ae 2dbe 3038 e7bd 8fa9 573c
000001e0: 7f6b 0abe 15cb 2b3e 478c 25be 3fdc 25bd
000001f0: 1296 9f3c 5ffa 883e b400 493e 7b56 2abe
00000200: 1c5d bc3e e45d 51bd 6b5c 92be 560f 8a3e
00000210: b094 55be b827 5c3c d7a8 e1bd 0409 b2be
00000220: f24b 0dbe dea1 20be 9d2f 1a3e ac10 54bc
00000230: a21b 8dbd 2bd4 243e 8c83 3abe 0e50 a5bd
00000240: dea9 6c3d 2ff5 8bbb 9e27 893d 3464 743e
00000250: 0e79 13be 4550 68be 75f5 493c a566 cabc
00000260: 579c 6dbe 8b19 3bbd ffcf a63d 90e4 a6bd
00000270: 2f70 12be 7114 833e bb57 213e b36e 683c
00000280: a289 ddbd 07d5 9dbe c062 0a3e 6a0e eebd
00000290: ef71 c73d 51f1 8abc d849 fcbd 74a3 dbbc
000002a0: 9520 ab3d 912f b53c 802b 23be 8458 25bc
000002b0: d363 af3d 8b4a 0cbd 2cd1 903d 88c3 02bd
000002c0: 1b9f ddbd e050 07be 9b81 953d 9201 6fbe
000002d0: 1ead 6c3e 225e d1bd f0c4 19bc ecd2 583d
000002e0: 408c 643d a557 96bd 3153 993d dbdd 053c
000002f0: b240 51ba 41cc 8d39 470a 7ebd 48de c83d
00000300: a17c 7f3d 47c1 c1bd b770 8bbe 186e 31be
00000310: a56b 13bf 8fd0 053e 8d81 0cbf 7b6e 52be
00000320: 3e08 1fbc d6fa 9bbe 77dc a0bc cbaf c9be
00000330: 31ef 3fbe 8324 9dbe 52de 41bd 045f 91bc
00000340: 35c4 d53d 6715 9a3e 64ac 7abe 5cab 08be
00000350: 8051 98bc 5098 2bbe e953 5cbe daee 04be
00000360: 0bc0 96be f1b5 293e 05c7 65bd 8746 12be
00000370: 4808 abbd 77ae b4bd dde3 dcbc 9c4e be3d
00000380: 0681 03be 59fa d7be 1000 b03d 1e1b 65be
00000390: 15a5 8b3c 07cd b5be e0eb e33c c526 303d
000003a0: 0803 943d d9cc b5be 3173 46bd 2407 d93d
000003b0: c94e 0c3e 63d2 193d 79ec 1cbe 1305 5ebc
000003c0: 66bd 6dbe 1e79 73be 9506 12be d5d0 9b3e
000003d0: 8bef c63d 0c48 893e 9189 bebe 0c08 d4bd
000003e0: c2a8 64be cd1c 213e a0e2 3c3d 0059 113d
000003f0: 9e73 82be c163 333d 2a04 7dbd 9548 8d3e

o2o.bias f4 [59]
0.5788491 0.075278394 0.1955411 -0.09728533 0.24359028 -0.29794517 -0.06287387 0.19190355
0.35223487 -0.110668644 0.07151633 0.10052411 0.024457099 0.15465896 0.35082132 -0.1765898
-0.36093062 0.3248045 -0.04789016 -0.018665139 0.26016107 -0.09991209 0.03842895 -0.3104826
-0.14985433 -0.060059674 -0.23046976 -0.16981184 -0.33004913 -0.27187988 -0.32152435 -0.34085545
-0.37799725 -0.2917957 -0.3453711 -0.317398 -0.22823057 -0.33581385 -0.2839458 -0.26104054
-0.33267522 -0.40335 -0.30470443 -0.340297 -0.1919337 -0.27878806 -0.3389581 -0.23463438
-0.344426 -0.29927367 -0.37399074 -0.28091472 -0.15770288 -0.326256 -0.33949634 -0.39156255
0.089575484 -0.27129292 0.037137724
00000000: 742f 143f 8f2b 9a3d ed3b 483e 883d c7bd
00000010: bb6f 793e 458c 98be 04c4 80bd 5d82 443e
00000020: 2158 b43e 3ea6 e2bd 2777 923d 96df cd3d
00000030: 415a c83c eb5e 1e3e da9e b33e f5d3 34be
00000040: e6cb b8be c74c a63e 7928 44bd a2e7 98bc
00000050: d533 853e b69e ccbd ad67 1d3d 93f7 9ebe
00000060: 6a73 19be 2201 76bd 4400 6cbe 28e3 2dbe
00000070: 33fc a8be d733 8bbe d79e a4be 9b84 aebe
00000080: db88 c1be 3f66 95be 7bd4 b0be fe81 a2be
00000090: 46b5 69be cbef abbe 5861 91be 1ba7 85be
000000a0: 6854 aabe e483 cebe 3802 9cbe 693b aebe
000000b0: 458a 44be 4fbd 8ebe eb8b adbe ff43 70be
000000c0: 9b58 b0be 663a 99be b77b bfbe 0ed4 8fbe
000000d0: dd7c 21be 070b a7be 77d2 adbe e37a c8be
000000e0: 5a73 b73d e8e6 8abe ba1d 183d
